…
 'momentum': 0.9,
 'pretrained': '../models/magface_iresnet18_casia_dp.pth',
 'print_freq': 10,
 'pth_save_epoch': 1,
 'pth_save_fold': './test/',
 'start_epoch': 0,
 'train_list': '../../data/data_full/HDA_processed_local/fine_tune_train_list_TEST.list',
 'u_a': 110.0,
 'u_margin': 0.8,
 'vis_mag': 1,
 'weight_decay': 0.0005,
 'workers': 4}
min lambda g is 22.586666666666673, currrent lambda is 35.0
=> torch version : 2.2.1+cu121
=> ngpus : 1
Value of args.pretrained: ../models/magface_iresnet18_casia_dp.pth
=> modeling the network ...
MODEL1: SoftmaxBuilder(
  (features): IResNet(
    (conv1): Conv2d(3, 64, kernel_size=(3, 3), stride=(1, 1), padding=(1, 1), bias=False)
    (bn1): BatchNorm2d(64, eps=2e-05, momentum=0.9, affine=True, track_running_stats=True)
    (prelu): PReLU(num_parameters=64)
    (layer1): Sequential(
      (0): IBasicBlock(
        (bn1): BatchNorm2d(64, eps=2e-05, momentum=0.9, affine=True, track_running_stats=True)
        (conv1): Conv2d(64, 64, kernel_size=(3, 3), stride=(1, 1), padding=(1, 1), bias=False)
        (bn2): BatchNorm2d(64, eps=2e-05, momentum=0.9, affine=True, track_running_stats=True)
        (prelu): PReLU(num_parameters=64)
        (conv2): Conv2d(64, 64, kernel_size=(3, 3), stride=(2, 2), padding=(1, 1), bias=False)
        (bn3): BatchNorm2d(64, eps=2e-05, momentum=0.9, affine=True, track_running_stats=True)
        (downsample): Sequential(
          (0): Conv2d(64, 64, kernel_size=(1, 1), stride=(2, 2), bias=False)
          (1): BatchNorm2d(64, eps=2e-05, momentum=0.9, affine=True, track_running_stats=True)
        )
      )
      (1): IBasicBlock(
        (bn1): BatchNorm2d(64, eps=2e-05, momentum=0.9, affine=True, track_running_stats=True)
        (conv1): Conv2d(64, 64, kernel_size=(3, 3), stride=(1, 1), padding=(1, 1), bias=False)
        (bn2): BatchNorm2d(64, eps=2e-05, momentum=0.9, affine=True, track_running_stats=True)
        (prelu): PReLU(num_parameters=64)
        (conv2): Conv2d(64, 64, kernel_size=(3, 3), stride=(1, 1), padding=(1, 1), bias=False)
        (bn3): BatchNorm2d(64, eps=2e-05, momentum=0.9, affine=True, track_running_stats=True)
      )
    )
    (layer2): Sequential(
      (0): IBasicBlock(
        (bn1): BatchNorm2d(64, eps=2e-05, momentum=0.9, affine=True, track_running_stats=True)
        (conv1): Conv2d(64, 128, kernel_size=(3, 3), stride=(1, 1), padding=(1, 1), bias=False)
        (bn2): BatchNorm2d(128, eps=2e-05, momentum=0.9, affine=True, track_running_stats=True)
        (prelu): PReLU(num_parameters=128)
        (conv2): Conv2d(128, 128, kernel_size=(3, 3), stride=(2, 2), padding=(1, 1), bias=False)
        (bn3): BatchNorm2d(128, eps=2e-05, momentum=0.9, affine=True, track_running_stats=True)
        (downsample): Sequential(
          (0): Conv2d(64, 128, kernel_size=(1, 1), stride=(2, 2), bias=False)
          (1): BatchNorm2d(128, eps=2e-05, momentum=0.9, affine=True, track_running_stats=True)
        )
      )
      (1): IBasicBlock(
        (bn1): BatchNorm2d(128, eps=2e-05, momentum=0.9, affine=True, track_running_stats=True)
        (conv1): Conv2d(128, 128, kernel_size=(3, 3), stride=(1, 1), padding=(1, 1), bias=False)
        (bn2): BatchNorm2d(128, eps=2e-05, momentum=0.9, affine=True, track_running_stats=True)
        (prelu): PReLU(num_parameters=128)
        (conv2): Conv2d(128, 128, kernel_size=(3, 3), stride=(1, 1), padding=(1, 1), bias=False)
        (bn3): BatchNorm2d(128, eps=2e-05, momentum=0.9, affine=True, track_running_stats=True)
      )
    )
    (layer3): Sequential(
      (0): IBasicBlock(
        (bn1): BatchNorm2d(128, eps=2e-05, momentum=0.9, affine=True, track_running_stats=True)
        (conv1): Conv2d(128, 256, kernel_size=(3, 3), stride=(1, 1), padding=(1, 1), bias=False)
        (bn2): BatchNorm2d(256, eps=2e-05, momentum=0.9, affine=True, track_running_stats=True)
        (prelu): PReLU(num_parameters=256)
        (conv2): Conv2d(256, 256, kernel_size=(3, 3), stride=(2, 2), padding=(1, 1), bias=False)
        (bn3): BatchNorm2d(256, eps=2e-05, momentum=0.9, affine=True, track_running_stats=True)
        (downsample): Sequential(
          (0): Conv2d(128, 256, kernel_size=(1, 1), stride=(2, 2), bias=False)
          (1): BatchNorm2d(256, eps=2e-05, momentum=0.9, affine=True, track_running_stats=True)
        )
      )
      (1): IBasicBlock(
        (bn1): BatchNorm2d(256, eps=2e-05, momentum=0.9, affine=True, track_running_stats=True)
        (conv1): Conv2d(256, 256, kernel_size=(3, 3), stride=(1, 1), padding=(1, 1), bias=False)
        (bn2): BatchNorm2d(256, eps=2e-05, momentum=0.9, affine=True, track_running_stats=True)
        (prelu): PReLU(num_parameters=256)
        (conv2): Conv2d(256, 256, kernel_size=(3, 3), stride=(1, 1), padding=(1, 1), bias=False)
        (bn3): BatchNorm2d(256, eps=2e-05, momentum=0.9, affine=True, track_running_stats=True)
      )
    )
    (layer4): Sequential(
      (0): IBasicBlock(
        (bn1): BatchNorm2d(256, eps=2e-05, momentum=0.9, affine=True, track_running_stats=True)
        (conv1): Conv2d(256, 512, kernel_size=(3, 3), stride=(1, 1), padding=(1, 1), bias=False)
        (bn2): BatchNorm2d(512, eps=2e-05, momentum=0.9, affine=True, track_running_stats=True)
        (prelu): PReLU(num_parameters=512)
        (conv2): Conv2d(512, 512, kernel_size=(3, 3), stride=(2, 2), padding=(1, 1), bias=False)
        (bn3): BatchNorm2d(512, eps=2e-05, momentum=0.9, affine=True, track_running_stats=True)
        (downsample): Sequential(
          (0): Conv2d(256, 512, kernel_size=(1, 1), stride=(2, 2), bias=False)
          (1): BatchNorm2d(512, eps=2e-05, momentum=0.9, affine=True, track_running_stats=True)
        )
      )
      (1): IBasicBlock(
        (bn1): BatchNorm2d(512, eps=2e-05, momentum=0.9, affine=True, track_running_stats=True)
        (conv1): Conv2d(512, 512, kernel_size=(3, 3), stride=(1, 1), padding=(1, 1), bias=False)
        (bn2): BatchNorm2d(512, eps=2e-05, momentum=0.9, affine=True, track_running_stats=True)
        (prelu): PReLU(num_parameters=512)
        (conv2): Conv2d(512, 512, kernel_size=(3, 3), stride=(1, 1), padding=(1, 1), bias=False)
        (bn3): BatchNorm2d(512, eps=2e-05, momentum=0.9, affine=True, track_running_stats=True)
      )
    )
    (avgpool): AdaptiveAvgPool2d(output_size=(1, 1))
    (bn2): BatchNorm2d(512, eps=2e-05, momentum=0.9, affine=True, track_running_stats=True)
    (dropout): Dropout2d(p=0.4, inplace=True)
    (fc): Linear(in_features=25088, out_features=512, bias=True)
    (features): BatchNorm1d(512, eps=2e-05, momentum=0.9, affine=True, track_running_stats=True)
  )
  (fc): MagLinear()
)
Number of trainable parameters: MODEL 1 24069120
=> loading pth from ../models/magface_iresnet18_casia_dp.pth ...
cpu!!!
K?  features.weight
torch.Size([512, 10572])

new KK 2 fc.weight
=> fc.weight not loaded! Model params: 188, loaded params: 187
HERE
MODEL2: SoftmaxBuilder(
  (features): IResNet(
    (conv1): Conv2d(3, 64, kernel_size=(3, 3), stride=(1, 1), padding=(1, 1), bias=False)
    (bn1): BatchNorm2d(64, eps=2e-05, momentum=0.9, affine=True, track_running_stats=True)
    (prelu): PReLU(num_parameters=64)
    (layer1): Sequential(
      (0): IBasicBlock(
        (bn1): BatchNorm2d(64, eps=2e-05, momentum=0.9, affine=True, track_running_stats=True)
        (conv1): Conv2d(64, 64, kernel_size=(3, 3), stride=(1, 1), padding=(1, 1), bias=False)
        (bn2): BatchNorm2d(64, eps=2e-05, momentum=0.9, affine=True, track_running_stats=True)
        (prelu): PReLU(num_parameters=64)
        (conv2): Conv2d(64, 64, kernel_size=(3, 3), stride=(2, 2), padding=(1, 1), bias=False)
        (bn3): BatchNorm2d(64, eps=2e-05, momentum=0.9, affine=True, track_running_stats=True)
        (downsample): Sequential(
          (0): Conv2d(64, 64, kernel_size=(1, 1), stride=(2, 2), bias=False)
          (1): BatchNorm2d(64, eps=2e-05, momentum=0.9, affine=True, track_running_stats=True)
        )
      )
      (1): IBasicBlock(
        (bn1): BatchNorm2d(64, eps=2e-05, momentum=0.9, affine=True, track_running_stats=True)
        (conv1): Conv2d(64, 64, kernel_size=(3, 3), stride=(1, 1), padding=(1, 1), bias=False)
        (bn2): BatchNorm2d(64, eps=2e-05, momentum=0.9, affine=True, track_running_stats=True)
        (prelu): PReLU(num_parameters=64)
        (conv2): Conv2d(64, 64, kernel_size=(3, 3), stride=(1, 1), padding=(1, 1), bias=False)
        (bn3): BatchNorm2d(64, eps=2e-05, momentum=0.9, affine=True, track_running_stats=True)
      )
    )
    (layer2): Sequential(
      (0): IBasicBlock(
        (bn1): BatchNorm2d(64, eps=2e-05, momentum=0.9, affine=True, track_running_stats=True)
        (conv1): Conv2d(64, 128, kernel_size=(3, 3), stride=(1, 1), padding=(1, 1), bias=False)
        (bn2): BatchNorm2d(128, eps=2e-05, momentum=0.9, affine=True, track_running_stats=True)
        (prelu): PReLU(num_parameters=128)
        (conv2): Conv2d(128, 128, kernel_size=(3, 3), stride=(2, 2), padding=(1, 1), bias=False)
        (bn3): BatchNorm2d(128, eps=2e-05, momentum=0.9, affine=True, track_running_stats=True)
        (downsample): Sequential(
          (0): Conv2d(64, 128, kernel_size=(1, 1), stride=(2, 2), bias=False)
          (1): BatchNorm2d(128, eps=2e-05, momentum=0.9, affine=True, track_running_stats=True)
        )
      )
      (1): IBasicBlock(
        (bn1): BatchNorm2d(128, eps=2e-05, momentum=0.9, affine=True, track_running_stats=True)
        (conv1): Conv2d(128, 128, kernel_size=(3, 3), stride=(1, 1), padding=(1, 1), bias=False)
        (bn2): BatchNorm2d(128, eps=2e-05, momentum=0.9, affine=True, track_running_stats=True)
        (prelu): PReLU(num_parameters=128)
        (conv2): Conv2d(128, 128, kernel_size=(3, 3), stride=(1, 1), padding=(1, 1), bias=False)
        (bn3): BatchNorm2d(128, eps=2e-05, momentum=0.9, affine=True, track_running_stats=True)
      )
    )
    (layer3): Sequential(
      (0): IBasicBlock(
        (bn1): BatchNorm2d(128, eps=2e-05, momentum=0.9, affine=True, track_running_stats=True)
        (conv1): Conv2d(128, 256, kernel_size=(3, 3), stride=(1, 1), padding=(1, 1), bias=False)
        (bn2): BatchNorm2d(256, eps=2e-05, momentum=0.9, affine=True, track_running_stats=True)
        (prelu): PReLU(num_parameters=256)
        (conv2): Conv2d(256, 256, kernel_size=(3, 3), stride=(2, 2), padding=(1, 1), bias=False)
        (bn3): BatchNorm2d(256, eps=2e-05, momentum=0.9, affine=True, track_running_stats=True)
        (downsample): Sequential(
          (0): Conv2d(128, 256, kernel_size=(1, 1), stride=(2, 2), bias=False)
          (1): BatchNorm2d(256, eps=2e-05, momentum=0.9, affine=True, track_running_stats=True)
        )
      )
      (1): IBasicBlock(
        (bn1): BatchNorm2d(256, eps=2e-05, momentum=0.9, affine=True, track_running_stats=True)
        (conv1): Conv2d(256, 256, kernel_size=(3, 3), stride=(1, 1), padding=(1, 1), bias=False)
        (bn2): BatchNorm2d(256, eps=2e-05, momentum=0.9, affine=True, track_running_stats=True)
        (prelu): PReLU(num_parameters=256)
        (conv2): Conv2d(256, 256, kernel_size=(3, 3), stride=(1, 1), padding=(1, 1), bias=False)
        (bn3): BatchNorm2d(256, eps=2e-05, momentum=0.9, affine=True, track_running_stats=True)
      )
    )
    (layer4): Sequential(
      (0): IBasicBlock(
        (bn1): BatchNorm2d(256, eps=2e-05, momentum=0.9, affine=True, track_running_stats=True)
        (conv1): Conv2d(256, 512, kernel_size=(3, 3), stride=(1, 1), padding=(1, 1), bias=False)
        (bn2): BatchNorm2d(512, eps=2e-05, momentum=0.9, affine=True, track_running_stats=True)
        (prelu): PReLU(num_parameters=512)
        (conv2): Conv2d(512, 512, kernel_size=(3, 3), stride=(2, 2), padding=(1, 1), bias=False)
        (bn3): BatchNorm2d(512, eps=2e-05, momentum=0.9, affine=True, track_running_stats=True)
        (downsample): Sequential(
          (0): Conv2d(256, 512, kernel_size=(1, 1), stride=(2, 2), bias=False)
          (1): BatchNorm2d(512, eps=2e-05, momentum=0.9, affine=True, track_running_stats=True)
        )
      )
      (1): IBasicBlock(
        (bn1): BatchNorm2d(512, eps=2e-05, momentum=0.9, affine=True, track_running_stats=True)
        (conv1): Conv2d(512, 512, kernel_size=(3, 3), stride=(1, 1), padding=(1, 1), bias=False)
        (bn2): BatchNorm2d(512, eps=2e-05, momentum=0.9, affine=True, track_running_stats=True)
        (prelu): PReLU(num_parameters=512)
        (conv2): Conv2d(512, 512, kernel_size=(3, 3), stride=(1, 1), padding=(1, 1), bias=False)
        (bn3): BatchNorm2d(512, eps=2e-05, momentum=0.9, affine=True, track_running_stats=True)
      )
    )
    (avgpool): AdaptiveAvgPool2d(output_size=(1, 1))
    (bn2): BatchNorm2d(512, eps=2e-05, momentum=0.9, affine=True, track_running_stats=True)
    (dropout): Dropout2d(p=0.4, inplace=True)
    (fc): Linear(in_features=25088, out_features=512, bias=True)
    (features): BatchNorm1d(512, eps=2e-05, momentum=0.9, affine=True, track_running_stats=True)
  )
  (fc): MagLinear()
)
Number of trainable parameters: MODEL 2 24069120
MODEL3:
=> FREEZING ALL LAYERS EXCEPT fc ...
NAME FC? module.fc.weight
=> building the optimizer ...
SGD (
Parameter Group 0
    dampening: 0
    differentiable: False
    foreach: None
    lr: 0.1
    maximize: False
    momentum: 0.9
    nesterov: False
    weight_decay: 0.0005
…
